Model: "sequential"
_________________________________________________________________
Layer (type)                 Output Shape              Param #   
=================================================================
conv2d (Conv2D)              (None, 30, 30, 32)        896       
_________________________________________________________________
activation (Activation)      (None, 30, 30, 32)        0         
_________________________________________________________________
max_pooling2d (MaxPooling2D) (None, 15, 15, 32)        0         
_________________________________________________________________
conv2d_1 (Conv2D)            (None, 13, 13, 64)        18496     
_________________________________________________________________
activation_1 (Activation)    (None, 13, 13, 64)        0         
_________________________________________________________________
max_pooling2d_1 (MaxPooling2 (None, 6, 6, 64)          0         
_________________________________________________________________
conv2d_2 (Conv2D)            (None, 4, 4, 64)          36928     
_________________________________________________________________
activation_2 (Activation)    (None, 4, 4, 64)          0         
_________________________________________________________________
flatten (Flatten)            (None, 1024)              0         
_________________________________________________________________
dense (Dense)                (None, 64)                65600     
_________________________________________________________________
activation_3 (Activation)    (None, 64)                0         
_________________________________________________________________
dense_1 (Dense)              (None, 10)                650       
=================================================================
Total params: 122,570
Trainable params: 122,570
Non-trainable params: 0
_________________________________________________________________
Train on 73257 samples, validate on 26032 samples
Epoch 1/5
   32/73257 [..............................] - ETA: 56:09 - loss: 2.2946 - accuracy: 0.1562
…
73184/73257 [============================>.] - ETA: 0s - loss: 0.2792 - accuracy: 0.917173257/73257 [==============================] - 17s 229us/sample - loss: 0.2792 - accuracy: 0.9171 - val_loss: 0.3440 - val_accuracy: 0.9045
Model: "sequential_1"
_________________________________________________________________
Layer (type)                 Output Shape              Param #   
=================================================================
conv2d_3 (Conv2D)            (None, 30, 30, 32)        896       
_________________________________________________________________
swish1 (Swish)               (None, 30, 30, 32)        1         
_________________________________________________________________
max_pooling2d_2 (MaxPooling2 (None, 15, 15, 32)        0         
_________________________________________________________________
conv2d_4 (Conv2D)            (None, 13, 13, 64)        18496     
_________________________________________________________________
swish2 (Swish)               (None, 13, 13, 64)        1         
_________________________________________________________________
max_pooling2d_3 (MaxPooling2 (None, 6, 6, 64)          0         
_________________________________________________________________
conv2d_5 (Conv2D)            (None, 4, 4, 64)          36928     
_________________________________________________________________
swish3 (Swish)               (None, 4, 4, 64)          1         
_________________________________________________________________
flatten_1 (Flatten)          (None, 1024)              0         
_________________________________________________________________
dense_2 (Dense)              (None, 64)                65600     
_________________________________________________________________
swish4 (Swish)               (None, 64)                1         
_________________________________________________________________
dense_3 (Dense)              (None, 10)                650       
=================================================================
Total params: 122,574
Trainable params: 122,574
Non-trainable params: 0
_________________________________________________________________
Train on 73257 samples, validate on 26032 samples
Epoch 1/5
   32/73257 [..............................] - ETA: 22:37 - loss: 2.3006 - accuracy: 0.0625
…
